…
        "outputId": "8dcc94e1-7743-4575-acd8-4440351fa179",
        "colab": {
          "base_uri": "https://localhost:8080/",
          "height": 520
        }
      },
      "cell_type": "code",
      "source": [
        "model.summary()"
      ],
      "execution_count": 99,
      "outputs": [
        {
          "output_type": "stream",
          "text": [
            "_________________________________________________________________\n",
            "Layer (type)                 Output Shape              Param #   \n",
            "=================================================================\n",
            "conv2d_8 (Conv2D)            (None, 126, 126, 64)      1792      \n",
            "_________________________________________________________________\n",
            "activation_16 (Activation)   (None, 126, 126, 64)      0         \n",
            "_________________________________________________________________\n",
            "max_pooling2d_8 (MaxPooling2 (None, 63, 63, 64)        0         \n",
            "_________________________________________________________________\n",
            "conv2d_9 (Conv2D)            (None, 61, 61, 32)        18464     \n",
            "_________________________________________________________________\n",
            "activation_17 (Activation)   (None, 61, 61, 32)        0         \n",
            "_________________________________________________________________\n",
            "max_pooling2d_9 (MaxPooling2 (None, 30, 30, 32)        0         \n",
            "_________________________________________________________________\n",
            "flatten_4 (Flatten)          (None, 28800)             0         \n",
            "_________________________________________________________________\n",
            "dense_8 (Dense)              (None, 150)               4320150   \n",
            "_________________________________________________________________\n",
            "activation_18 (Activation)   (None, 150)               0         \n",
            "_________________________________________________________________\n",
            "dense_9 (Dense)              (None, 100)               15100     \n",
            "_________________________________________________________________\n",
            "activation_19 (Activation)   (None, 100)               0         \n",
            "=================================================================\n",
            "Total params: 4,355,506\n",
            "Trainable params: 4,355,506\n",
            "Non-trainable params: 0\n",
            "_________________________________________________________________\n"
          ],
          "name": "stdout"
        }
      ]
    },
    {
      "metadata": {
        "id": "_e6bMqtGoOjO",
…
